model/model.pth (torch, 16799 bytes, 4 tensors)

linear1.weight f4 [256, 11]
00000000: 5ee1 63be 3ae6 033e 34a1 d63d 802c 71be
00000010: 700b 0cbd be9d 08be a0d4 6abe 24c8 95bd
00000020: b056 023e 302a 5cbd 400b 75bd f95e 843e
00000030: 2c67 863e a339 6abe fc49 6b3e fa2f f1bd
00000040: d46b 313e 2728 8a3e 7be8 0f3e 3df4 5abe
00000050: b1f3 afbd 6faf ecbd 77fd 433d 7271 dc3e
00000060: cc20 02be b672 043e 8025 133e 317d 3a3e
00000070: dccc 58bd f13b 343e aca9 93bd 4fa2 acbd
00000080: eb24 63be 0432 ecbd 4aeb 263e e91d 27be
00000090: 3e96 153d cd6d 423d e9ed 69be 6af8 7dbe
000000a0: a047 07be 741f 54be f5da f4bd cbce 2e3e
000000b0: 52b4 9cbe a1f0 b1be 8fad ae3e 18f4 47be
000000c0: 2488 a33e acfc 523e f74a 953e cce0 df3d
000000d0: 5a77 41bc 4521 a5bd bbe5 ac3d bed0 6f3e
000000e0: 271b 733e 92d1 bb3e 0db2 713e 0134 a53e
000000f0: cae5 19be 8d58 153e ab8b bb3a 21f0 223d
00000100: 0bda 5c3e d4d1 413e 23b5 23be 44c9 3a3e
00000110: 537c 26be 20ba dfbc ead8 253e c0b2 dabb
00000120: 7c6e d83d eaad d9bd 8928 99be b17a 81be
00000130: 749f debb ffa6 993d a210 b23e f9b0 163e
00000140: 4bac 033e a18c 683e 95a6 a63d 0b05 98bd
00000150: 4b73 97be db03 833e bdf8 50be 52d7 f5bd
00000160: a126 c63c 80e8 953e b3a0 c7be c81e 28be
00000170: bd2c 493e 7b51 b83d 1920 bc3e 1fce 693e
00000180: ee63 ad3e de97 1c3c 6e2e 36be bc10 ac3e
00000190: 1ce7 7a3e 5888 e53c 63f5 e23d dbf8 9a3e
000001a0: 7969 b3bc c677 8abe 7184 4fbe e866 55be
000001b0: 553f 443e 27a2 963e 181e 26be e57f 73be
000001c0: b2e7 293e 545c d63c 378b 533d 452b 8b3e
000001d0: fd7b 5c3e ebfd a13e 5e7a 34bc 8320 b83d
000001e0: 86c7 b73d bdcc da3d 59fd 5d3e 445f 9bbe
000001f0: a423 30be bf95 2e3e 71e3 573e e90e b43d
00000200: 0e80 6cbd 6142 abbe 3908 18be 9196 db3d
00000210: 82fa a33e fab8 4f3e 67c2 edbd 18c7 043d
00000220: edf8 23be 3506 a43e 0b0b 693e df53 683c
00000230: 3c56 bebc 8971 65be 8f35 8d3c 70e1 c33d
00000240: b0d7 683e 922c 36be 0485 28bc cd02 653c
00000250: 8a7e 65be f79a 563e 05f7 bbbd 2099 7abe
00000260: 198e 013e d0ab 68be bdfd 993e d3b6 70be
00000270: ff4b 913e 4d62 733e 63e8 1fbe 50b5 bf3b
00000280: 38fd f73d 475b af3d e92d 95bd cbae a93e
00000290: ea53 6cbd 10d3 903e 8551 3c3e 2a3e 20be
000002a0: 4d2f babd 50d1 60be 60d6 9dbe fa91 55be
000002b0: c295 94be 1807 0abe 89bc 7abe 78ab 543e
000002c0: 62d6 113d 6cb5 0fbe f37b bdbd 147d 623d
000002d0: ed2f cfbd 751e aabd a8f5 81be 65b6 92be
000002e0: d514 1a3d 512c 493e 32a1 bfbe c703 18be
000002f0: a2d9 983e 720c 2cbe 7b6b 843d 7248 0f3e
00000300: 4866 633e ec8b 9cbd 273e 7c3e d224 c93d
00000310: cbe8 9abd 3373 f73d 6049 83bd 40f0 e23c
00000320: 7672 99bd 2873 713d d03b 203d 0a7a 3c3e
00000330: 805a 423c 783e 32bd 749b 96be c095 713c
00000340: daf9 e9bd 5c00 57be 7bf4 edbc b9ce a53d
00000350: c516 b03e c897 26be 6f24 b43d 983d 21be
00000360: 2084 663e 45a6 ec3d 54b0 69bd 5c77 6dbd
00000370: ff0a bd3e adb3 68bd 6e85 87be 8001 76be
00000380: 9cee 573d 7d3f 893d ae88 92be fac2 96bc
00000390: 21b5 42be 5289 98bd 8a84 4a3e 9d31 663d
000003a0: 01b3 d1bd 430c 4ebe 3489 3a3c 30f5 4ebd
000003b0: 5c8e 1a3e df10 523e cd36 093e 63e6 4cbe
000003c0: 6e88 613e 550d 0abe 5a12 d23e 56d0 3cbe
000003d0: e8ca 46be ca93 533a 672a 82be cbcd 9f3d
000003e0: c6fb 17be 723e 4bbe 262a 453e 577b 09be
000003f0: 2a76 083e 688d 803e 4232 5abe 864b 85be
-0.2225394 0.12880793 0.10479966 -0.23552132 -0.034190595 -0.13341424 -0.22932673 -0.073135644
0.12728381 -0.05375117 -0.059825182 0.25853708 0.2625059 -0.22873549 0.22977442 -0.11776729
0.1732629 0.2698376 0.14053528 -0.21382232 -0.08591402 -0.11556899 0.047849145 0.43055302
-0.12707824 0.12934384 0.14369774 0.18211819 -0.052929744 0.17600991 -0.07210097 -0.084293954
-0.22182052 -0.11532977 0.16300693 -0.16320004 0.036520235 0.047467995 -0.22844662 -0.24801794
-0.13210917 -0.20715123 -0.11955825 0.17071073 -0.30606323 -0.34753898 0.3411679 -0.19526708
0.31939805 0.20604199 0.29158756 0.109315485 -0.011808241 -0.08062986 0.08442255 0.23419473
0.23740827 0.36683327 0.23603077 0.32266238 -0.15029064 0.1458456 0.0014308592 0.039779786
0.21567552 0.189277 -0.15987067 0.18240839 -0.16258363 -0.027310431 0.16196027 -0.0066741407
0.10567948 -0.106288746 -0.29913738 -0.2528892 -0.0067939106 0.07502555 0.34778315 0.14715947
0.12858693 0.22709896 0.08137242 -0.07422837 -0.2958015 0.2558888 -0.20407386 -0.1200396
0.024188342 0.29278946 -0.3898979 -0.16417992 0.19645973 0.08999916 0.3674324 0.22832535
0.33865303 0.009557692 -0.17791149 0.33606517 0.24502224 0.028019115 0.1108196 0.30267987
-0.02190088 -0.27044505 -0.20265366 -0.20840037 0.19164784 0.29420587 -0.16222417 -0.23779257
0.16592291 0.026167072 0.051646437 0.2718145 0.21531673 0.31639037 -0.011015503 0.08990576
0.08973603 0.10683582 0.21678676 -0.3034612 -0.17201096 0.17049311 0.21082856 0.087919064
-0.05773931 -0.3344908 -0.14846887 0.10722078 0.3202706 0.20285407 -0.11609345 0.032416433
-0.16012926 0.32035986 0.22758119 0.014180153 -0.02323448 -0.22406591 0.017237453 0.09564483
0.22738528 -0.1779044 -0.01028562 0.013977719 -0.22411552 0.20957552 -0.091779746 -0.24472475
0.12651862 -0.22721791 0.300764 -0.23507242 0.28378293 0.23767968 -0.15615992 0.0058504716
0.121088445 0.08562332 -0.07284147 0.3314117 -0.057697214 0.28286028 0.18390472 -0.15648714
-0.09091053 -0.21954846 -0.30827618 -0.20856467 -0.29020506 -0.13479269 -0.24485983 0.20768535
0.035604842 -0.1403405 -0.09252157 0.055295065 -0.10116563 -0.083065905 -0.25382733 -0.2865478
0.037617523 0.19645812 -0.3742767 -0.14845191 0.2985354 -0.16801623 0.06465813 0.1399248
0.22206986 -0.076438755 0.24633084 0.09821476 -0.07563933 0.120825194 -0.064104795 0.02770245
-0.07492535 0.058947712 0.03911954 0.18405929 0.011862397 -0.043516606 -0.29415476 0.014745176
-0.114246085 -0.20996231 -0.029047241 0.0809607 0.34392372 -0.16268837 0.08796012 -0.15746152
0.22511339 0.11555151 -0.057052925 -0.057975158 0.36922452 -0.056811977 -0.26468986 -0.2402401
0.05271779 0.067015626 -0.28619903 -0.018403519 -0.19014408 -0.07448067 0.19777122 0.05619966
-0.102392204 -0.20121865 0.011385251 -0.050526798 0.15093368 0.20514248 0.13399811 -0.2000976
0.220247 -0.13481648 0.41029626 -0.18438849 -0.1941334 0.00080710335 -0.25422975 0.07802924
-0.14842138 -0.1984804 0.1925436 -0.13425957 0.13326326 0.25107884 -0.21308234 -0.26034182

linear1.bias f4 [256]
00000000: 1fd5 88be a2d6 32bd 4a49 64bd 1bff 053e
00000010: bb75 9a3d f645 8f3c fc02 a4be 3e51 48bc
00000020: 9019 40be 8450 debd fc4c 50be 532a 383e
00000030: 026a 973e eb9f 2ebe 7579 e1bd bb3f 7abd
00000040: 76f1 643e 91ea 523c 592e 6ebe 46a6 03be
00000050: cbab da3d 9500 e3bd d561 b43c db1d 19be
00000060: 00ee 2c3e bc7e 83be 7d27 b13e 76f2 2b3e
00000070: 93dc 883e 4fed 363e c94d e23d b1b6 de3d
00000080: 99a5 a33d f647 3a3e c982 223e d21b ae3c
00000090: cb21 a03d a4e1 71be e1f5 303e 8f9f a53e
000000a0: 4ff0 34bd 195d 823e 1fda 713e 3c01 1b3e
000000b0: 7ccd 8ebd 419b 28bd f45e 33bc 6d7f 94bd
000000c0: fb3b 353e b26d 1e3e e263 7a3d ab0f ba3d
000000d0: a176 e33d 46c8 78bd 38e3 6ebe 7f9b 01bd
000000e0: e81a 0f3d e049 a8be b191 7ebd 66e9 0d3e
000000f0: cd5e b2bd a617 113d ff19 c83c f44b 2b3e
00000100: 393b 63bd a995 89be 7148 42bd 9997 90bd
00000110: 67bc 783e f1ba 413e beeb a4be 1a92 47be
00000120: e8a0 a23d 6680 8a3c 16b8 40be 83a0 563e
00000130: ca84 8dbe b444 103e 17d1 19bd 17e0 94be
00000140: 8fd8 943e f5c3 81be 6259 5d3e ddc6 03bd
00000150: 0625 4b3e 50e3 23bd 2b82 a6bc 0408 4d3d
00000160: dca9 9fbc dfa0 b3bd 89fa 573e bbdd 7c3c
00000170: 429b 473d 2b9e 4b3e 52e1 d3bd e728 26be
00000180: 314b 903d 2fcf 86bd 9b69 33bd 9b01 a2bc
00000190: 1656 aebc 63b0 2d3e eeb1 2c3e 92f9 df3d
000001a0: 95d1 5cbe c1c0 393e 1a9f 1d3e 7e09 2f3d
000001b0: 40ec babd 823d a33e f1e0 0ebe 7c93 a6be
000001c0: a8ff 9abe d98d 563e 1a0c 683e 7efc c5bd
000001d0: 35f9 923e 1a80 a5be 0045 83be 19fa 133e
000001e0: a215 09be 2958 413e 6f2b 2dbe 58ea e6bd
000001f0: 1d34 a63d f005 74be 7791 98be accc 77be
00000200: c9d0 18bc ae24 f43d 172a f93d c87c be3e
00000210: b17a 55be 7aab 903e 8d16 3f3e 08dd 37be
00000220: d08e 253e 5ed2 0e3d 7dc2 76bd 47f5 60be
00000230: d0e0 94bd fe57 94bc 24ae 0c3e 4737 c8bd
00000240: 420e 4dbe 9e64 b6bd 596a a4bb 8146 9d3e
00000250: 069a a53d dbcc fdbd ad43 0dbe 5d19 10be
00000260: ccf0 173c 6292 043c 36d1 20bd 72ba 973d
00000270: b287 18be e5cd c53e 9999 f23d 9718 fd3d
00000280: 5cb5 65be a2dc 803e da4c a83e 1ba5 01be
00000290: 2f6c f83d c8f6 babc 3aa8 9abd cbd8 92bb
000002a0: e7a6 c2bd 45b8 973e 8b2d 5d3e df90 b23e
000002b0: e80e bbbc f4da 31be f4cb 4e3d 4687 6dbd
000002c0: c024 d53d 6ded a8bd 3a8e 2a3e 2b9d c8bd
000002d0: 544b 3cbe f0a4 8fbd 25d1 a8bb 62c5 ae3c
000002e0: 9587 943e eba1 bebe 9025 e4bd 95cf 943e
000002f0: b7f9 a5bb c696 83be 0a26 7fbd 5c2c 3fbd
00000300: 478f 713e c525 1e3e d6c3 a93e 5924 b43e
00000310: d76e bcbd d58d 7b3e 9c0d a4bd 2d9c 553d
00000320: 3c9d f83d f4b5 253d 1e65 163d 4db1 043e
00000330: f69b c9bd eda0 93be b112 4dbd ff4b dabc
00000340: 8d60 47be f78b 07bd e5eb 9dbe 8b83 82be
00000350: e00d abbe 2e58 f33d bec1 183e c288 d13d
00000360: 38b1 a53e 1971 74be 45ef 71be 6a3a 89be
00000370: 5c08 863e ff33 abbe 7f6e 0f3e a836 123d
00000380: 4503 79be 35bf b43d 4671 64be 2c90 6abe
00000390: 4f59 e23c a44d 42bd 388d 31be ec93 b53d
000003a0: 126e a63e 0d4d ec3d 4e26 8e3c d8a7 b03e
000003b0: 0583 45be 7272 e83c b8ae 03be 0097 da3d
000003c0: 06f3 7abe ee35 693e eed5 28be 013e c33d
000003d0: 1a97 2fbe 78d8 82bd eca0 b53d ef8d f1bd
000003e0: 030b a03d d901 b63c e3e0 a8bd 90ed 87be
000003f0: 45ee 6d3e d561 b43e dfca d5bd 90f9 9dbe
-0.26725098 -0.04366172 -0.055733956 0.13085596 0.075419866 0.017489415 -0.32033527 -0.012226401
-0.18759751 -0.10855201 -0.20341867 0.17984895 0.29573065 -0.17053191 -0.11009494 -0.061095934
0.22357735 0.012873308 -0.23259868 -0.12856397 0.10677298 -0.110840954 0.022019306 -0.14952795
0.16887665 -0.25682628 0.3460044 0.1679171 0.26730785 0.17863964 0.110499926 0.10874689
0.079905696 0.18191513 0.15870203 0.0212535 0.078189455 -0.23621231 0.17281295 0.32348296
-0.04417449 0.25461653 0.23618363 0.1513719 -0.06972787 -0.041163687 -0.010947932 -0.07250867
0.17698662 0.15471533 0.061130412 0.0908502 0.11106611 -0.06073787 -0.23328865 -0.031642433
0.03493777 -0.32868862 -0.06215066 0.13858566 -0.08709488 0.035422944 0.024426458 0.16728193
-0.0554764 -0.26871994 -0.047432367 -0.07060165 0.2429062 0.18918969 -0.32211107 -0.19489327
0.07940847 0.016906928 -0.18820223 0.20959668 -0.27640373 0.14088708 -0.03755292 -0.29077217
0.2907147 -0.25344816 0.21616128 -0.032172073 0.19838342 -0.040011704 -0.02032574 0.050056472
-0.019490175 -0.08770918 0.21091665 0.015433724 0.04873205 0.19884555 -0.10345711 -0.1622654
0.070455916 -0.06582486 -0.043801885 -0.019776156 -0.021281283 0.16961817 0.1686475 0.10936274
-0.21564324 0.18139936 0.15392724 0.04273366 -0.09127092 0.31882864 -0.13952996 -0.32534397
-0.30273175 0.20952548 0.22660866 -0.096673 0.28705755 -0.32324296 -0.2563858 0.14450873
-0.13387159 0.18881287 -0.169111 -0.11275166 0.081154086 -0.2383039 -0.2979848 -0.2419917
-0.009327122 0.119210586 0.12166231 0.37204576 -0.20847584 0.28255826 0.18660946 -0.1795541
0.1616776 0.03486859 -0.060244072 -0.21968566 -0.07269442 -0.018108364 0.13738304 -0.09776168
-0.2002497 -0.0890591 -0.0050175604 0.30717853 0.08086018 -0.12392589 -0.13795348 -0.14072175
0.009273719 0.008091541 -0.03926202 0.074086085 -0.14895514 0.38633648 0.11845703 0.12358206
-0.22432464 0.2516833 0.32871133 -0.12660639 0.121300094 -0.022822753 -0.07551618 -0.00448141
-0.0950449 0.29632774 0.21599405 0.34876153 -0.022834256 -0.1736868 0.050487474 -0.057990335
0.104074 -0.082484104 0.16655818 -0.097956024 -0.1838811 -0.07013881 -0.005151885 0.021334354
0.2900969 -0.3723291 -0.11139977 0.29064623 -0.0050651687 -0.25700969 -0.062292136 -0.046673164
0.23589812 0.15444095 0.33157223 0.3518398 -0.092008285 0.24565823 -0.08010408 0.052150894
0.12139365 0.040456727 0.036717527 0.1295826 -0.098442 -0.28833714 -0.050066654 -0.026647566
-0.19470425 -0.033092465 -0.30844036 -0.25490984 -0.33409023 0.11882053 0.14917657 0.102311626
0.3236177 -0.23871268 -0.2362643 -0.2680238 0.26178253 -0.33438107 0.14006995 0.035696656
-0.24317653 0.08825532 -0.22308835 -0.2290656 0.027630476 -0.047437325 -0.17339027 0.088661045
0.32505852 0.11538134 0.01735225 0.34503055 -0.19288261 0.028374884 -0.12859619 0.10673332
-0.24506769 0.22774479 -0.16487858 0.09533311 -0.17147484 -0.063889444 0.08868584 -0.1179465
0.078146 0.022217678 -0.08246019 -0.26548433 0.23235424 0.3523089 -0.10439085 -0.30854464

linear2.weight f4 [3, 256]
00000000: 182a 613c 65ee a6bd b00a 30bb 56be a0bc
00000010: 5f54 663d 026b 0abe 9c47 b0bc b173 b23c
00000020: 91db 01bd d86d 65be c0d8 1b3c 9305 52bd
00000030: 3d6c 8fbd 7283 f5bc 4aba 68bd ceec eabc
00000040: 44c8 edba 5359 b6bb 0869 1b3c 4fc7 e93d
00000050: 59f1 24be 124f 1dbd 10f1 04be ab9c af3d
00000060: 0b2f d8bd 6f53 5abd 3a77 eb3b 73bc 32bd
00000070: 2695 b5bd 7a73 d5bb f82d ed3d 0b55 5b3d
00000080: 90a4 0fbd f3be f6bd c533 023b 2206 e03c
00000090: d932 cd3d a655 88bd c121 34bc 5a49 a0bd
000000a0: 615a f2bd bd92 72bd 8237 a9bd c67f 38bd
000000b0: 7844 133e 13f3 443c 41af aa3a 051a 643e
000000c0: 7ef3 14be 3e92 773d 83e5 ba3d 8bc6 223d
000000d0: c94f ddbc cd13 c5bd c797 0fbd 60a5 ffbd
000000e0: 7f3d a23c fb1d 64bc 902b 53bc df67 19bd
000000f0: 7d1f 78bd 2651 493c 2e50 53bd 71d9 543c
00000100: 0ec1 88bd be45 12bd 68ae c3bb 8f30 9ebc
00000110: 7359 59bd ddeb 183d 5096 ba3d b9fe 8ebd
00000120: 319a 11bd d34c c1bd 286a 45be 9413 06be
00000130: 7c0b 213c c4fa babd ee5c b73c e7f4 34bd
00000140: 7b4a c3bd 9032 fb3c cda2 62bc 50a2 2abd
00000150: a12b cbbc 9641 f2bd 673a 84be 9c24 6cbc
00000160: df9e 083d 9e26 59bd 2709 81bd 8261 9bbd
00000170: 0427 05bd ef76 b7bd b05f bf39 07fd 773d
00000180: 674a d9bd fa82 73bd a114 bebc 0f77 e23c
00000190: cfb3 3c3d 3401 4abd 790d 8ebd 882f 013c
000001a0: 1a95 043d 4a79 b83d 2f43 c1bc 9c6a 07bd
000001b0: 5b10 8dbd 6e3a acbd c060 be3d 6f36 aa3c
000001c0: 2577 04be 0f04 9cbc ab73 343d 318e 06be
000001d0: 434c f0bd b421 c23c a31d a3bc 0652 a93c
000001e0: 2f39 96bc ea04 d9bd 7eea d7bb 469e 21bd
000001f0: c0d5 18bd c0b1 f13b eb0d 473d f06f 883d
00000200: 882a cabc e960 0fbd 8008 2a3d e519 8abd
00000210: 33ac 82bd 3d2d 9c3d 801c b6bd ee3e 123d
00000220: 2f5e a3bd 8549 ea3b 1e59 bdbd fb65 03bd
00000230: 5ee1 10bb 8e3a b9bc 7ae3 0dbb fb57 2abd
00000240: f5c4 1bbd c8b4 4a3c a613 7bbb 65e4 d6bd
00000250: 524b 26bc 8622 25bd c42f 4f3d c269 b53b
00000260: 57c8 183e d85b 1cbd 6d9b 063d 1b50 06be
00000270: b69b 813d 9a5b f5bd bc17 87bd 0787 fd3c
00000280: 1417 343d e165 14be eb01 abbc 5a78 0ebe
00000290: 3470 4bbc 6297 e4bd 8535 07be 0d81 babd
000002a0: bffd 8cbd c777 8a3c 623b 9abd 6438 c2bd
000002b0: 88a4 9fbd 5638 c03c e52b d6bd 56e8 f1bd
000002c0: 7581 75bd 02d4 513c 4393 65bd bfc6 07be
000002d0: 6a25 d9bd b111 88bc a563 56bd 1e11 e2bd
000002e0: ad84 acbd 146d 45bd b9c0 16bd 0c04 16be
000002f0: 75d5 f3bd 25a6 44be 8130 89bd 2d8f 87bd
00000300: 78c9 03be 3ef8 00bc 8fc4 09bd ff68 dbbd
00000310: 6587 f2bc 8109 00be 6be6 7f3d 6a08 24be
00000320: debf f63d 3533 243d d942 00be 00e8 a7bd
00000330: 9ba8 60bd 5466 c8bc 7961 0fbe 78a2 18be
00000340: 73f7 003e 8514 25bd 548b 703d b75e acbd
00000350: 20bb 70bb fb73 f3bd 5280 183d b9b2 91bc
00000360: a1ce e33b f92c 5d3d 3521 06bd bd4a 87bd
00000370: 86c6 4f3b c273 6e3a 5ed4 d0bd 1cf0 b6bc
00000380: 1f69 85bc eac7 0abd 23e6 083c a258 d8bc
00000390: d857 9d3d 02eb 9fbd 5dc5 aa3c 8c7f 083e
000003a0: 8c44 1bbd 0502 b338 5ca0 89bc 8824 90bd
000003b0: 5172 febc dc5f ab3b d032 88bb 34fd 9bbd
000003c0: 0211 8abd d6ff f1bd 6c99 28bd b230 7ebd
000003d0: 2145 c4bc 6e2a f7bd efad 95bd a625 923d
000003e0: 5603 f8bd d998 9dbd a57a b2bd 105f 2c3c
000003f0: 3318 1ebd b2aa 8cba 3435 48bd 5010 703d
0.013742946 -0.08150939 -0.002686184 -0.01962201 0.056232806 -0.13517383 -0.021518521 0.021783682
-0.031703535 -0.22405183 0.009512126 -0.051274847 -0.07003067 -0.029969905 -0.056818284 -0.02867737
-0.0018141349 -0.0055648475 0.009485491 0.11414968 -0.16107692 -0.038405485 -0.12982583 0.08574804
-0.10555848 -0.053302225 0.007185844 -0.04363675 -0.088663384 -0.00651401 0.115810335 0.0535479
-0.03506905 -0.120481394 0.0019867283 0.027346674 0.10019464 -0.06656961 -0.010994376 -0.07826491
-0.11833645 -0.05922197 -0.082625404 -0.04504373 0.14381588 0.012020844 0.00130222 0.2227555
-0.1454601 0.0604422 0.09125807 0.039740127 -0.027015584 -0.09622917 -0.035056856 -0.12482715
0.019804714 -0.0139231635 -0.012888804 -0.037452575 -0.060576905 0.012287414 -0.051590137 0.012991295
-0.06677447 -0.035711043 -0.0059717186 -0.019310264 -0.05306382 0.03733431 0.09110701 -0.06982178
-0.03554744 -0.09438481 -0.19278777 -0.13093406 0.009829398 -0.09129861 0.02238318 -0.04417887
-0.095356904 0.030663759 -0.01383276 -0.0416587 -0.024801077 -0.11828916 -0.25825807 -0.014413025
0.033354636 -0.053015344 -0.06300574 -0.075869575 -0.03250791 -0.08958232 0.00036501652 0.06054404
-0.10609894 -0.05945108 -0.023203196 0.027644662 0.046069916 -0.049317554 -0.069361635 0.0078848675
0.032368757 0.09007509 -0.023591606 -0.033060655 -0.06887885 -0.08409582 0.09295797 0.02077791
-0.12936075 -0.019044904 0.044055622 -0.13140179 -0.11733296 0.023697712 -0.019911593 0.020668995
-0.018337814 -0.105966404 -0.006589233 -0.039457582 -0.037313223 0.007375926 0.048597258 0.066619754
-0.024678484 -0.03500453 0.041512012 -0.0674322 -0.06380501 0.07625816 -0.08892155 0.035704546
-0.079769485 0.0071498775 -0.092455134 -0.032079678 -0.0022106986 -0.022610929 -0.002165048 -0.04158781
-0.03802963 0.012372203 -0.0038311272 -0.104927815 -0.010149794 -0.040316127 0.050582662 0.005536289
0.14920174 -0.038173527 0.03286307 -0.13116495 0.06328528 -0.11980362 -0.06596324 0.030948175
0.04396732 -0.14491989 -0.020874938 -0.13913098 -0.012416888 -0.111616865 -0.1320401 -0.09106646
-0.06884336 0.016902817 -0.075308576 -0.09483412 -0.07795054 0.023464363 -0.10457591 -0.11811893
-0.059937913 0.012806894 -0.056048643 -0.1325941 -0.10602839 -0.016609998 -0.052341122 -0.11038421
-0.084237434 -0.048199728 -0.03680489 -0.14649981 -0.11905948 -0.19204004 -0.066987045 -0.066191055
-0.12869823 -0.007871686 -0.03363472 -0.10713386 -0.029605577 -0.12503625 0.062475603 -0.16018835
0.120483145 0.040087897 -0.125255 -0.08198547 -0.054848295 -0.024462856 -0.14002027 -0.14905727
0.12594394 -0.040302772 0.058726624 -0.08416503 -0.003673263 -0.11887356 0.03723175 -0.017785417
0.0069521223 0.053997967 -0.032746512 -0.06606052 0.0031704023 0.0009096229 -0.10196756 -0.02233129
-0.016285477 -0.03388206 0.00835565 -0.02640945 0.076827705 -0.07808496 0.020846063 0.13329905
-0.03790717 8.535761e-05 -0.016800098 -0.07038218 -0.03106037 0.005229933 -0.004156448 -0.07616654
-0.06741525 -0.11816375 -0.04116194 -0.06205816 -0.023958744 -0.1206864 -0.07308566 0.07136087
-0.12110011 -0.07695169 -0.08714799 0.010520712 -0.038597297 -0.0010732024 -0.048878863 0.058609307

linear2.bias f4 [3]
00000000: 0a80 c2bc fb23 08be 9be3 b5bd
-0.023742694 -0.13294975 -0.08881303
